…
I tensorflow/stream_executor/dso_loader.cc:135] successfully opened CUDA library libcufft.so.8.0 locally
I tensorflow/stream_executor/dso_loader.cc:135] successfully opened CUDA library libcuda.so.1 locally
I tensorflow/stream_executor/dso_loader.cc:135] successfully opened CUDA library libcurand.so.8.0 locally
____________________________________________________________________________________________________
Layer (type)                     Output Shape          Param #     Connected to                     
====================================================================================================
convolution2d_1 (Convolution2D)  (None, 112, 112, 16)  448         convolution2d_input_1[0][0]      
____________________________________________________________________________________________________
convolution2d_2 (Convolution2D)  (None, 56, 56, 32)    4640        convolution2d_1[0][0]            
____________________________________________________________________________________________________
convolution2d_3 (Convolution2D)  (None, 28, 28, 64)    18496       convolution2d_2[0][0]            
____________________________________________________________________________________________________
convolution2d_4 (Convolution2D)  (None, 14, 14, 128)   73856       convolution2d_3[0][0]            
____________________________________________________________________________________________________
convolution2d_5 (Convolution2D)  (None, 7, 7, 256)     295168      convolution2d_4[0][0]            
____________________________________________________________________________________________________
convolution2d_6 (Convolution2D)  (None, 4, 4, 512)     1180160     convolution2d_5[0][0]            
____________________________________________________________________________________________________
flatten_1 (Flatten)              (None, 8192)          0           convolution2d_6[0][0]            
____________________________________________________________________________________________________
dense_1 (Dense)                  (None, 4096)          33558528    flatten_1[0][0]                  
____________________________________________________________________________________________________
dropout_1 (Dropout)              (None, 4096)          0           dense_1[0][0]                    
____________________________________________________________________________________________________
dense_2 (Dense)                  (None, 4096)          16781312    dropout_1[0][0]                  
____________________________________________________________________________________________________
dropout_2 (Dropout)              (None, 4096)          0           dense_2[0][0]                    
____________________________________________________________________________________________________
dense_3 (Dense)                  (None, 4096)          16781312    dropout_2[0][0]                  
____________________________________________________________________________________________________
dense_4 (Dense)                  (None, 4096)          16781312    dense_3[0][0]                    
____________________________________________________________________________________________________
reshape_1 (Reshape)              (None, 8, 8, 64)      0           dense_4[0][0]                    
____________________________________________________________________________________________________
deconvolution2d_1 (Deconvolution (None, 15, 15, 256)   147712      reshape_1[0][0]                  
____________________________________________________________________________________________________
deconvolution2d_2 (Deconvolution (None, 29, 29, 128)   295040      deconvolution2d_1[0][0]          
____________________________________________________________________________________________________
deconvolution2d_3 (Deconvolution (None, 57, 57, 64)    73792       deconvolution2d_2[0][0]          
____________________________________________________________________________________________________
deconvolution2d_4 (Deconvolution (None, 113, 113, 32)  18464       deconvolution2d_3[0][0]          
____________________________________________________________________________________________________
deconvolution2d_5 (Deconvolution (None, 225, 225, 16)  4624        deconvolution2d_4[0][0]          
________________________________________________________W tensorflow/core/platform/cpu_feature_guard.cc:45] The TensorFlow library wasn't compiled to use SSE3 instructions, but these are available on your machine and could speed up CPU computations.
W tensorflow/core/platform/cpu_feature_guard.cc:45] The TensorFlow library wasn't compiled to use SSE4.1 instructions, but these are available on your machine and could speed up CPU computations.
…
